denoising/model/model_UNET.pt (torch, 503831 bytes, 36 tensors)

weight f4 [8, 3, 3, 3]
0	0xbe1fe172	-0.15613344
1	0x3ad0102e	0.0015873963
2	0xbd480687	-0.04883435
3	0xbe21827a	-0.15772429
4	0x3d926eb9	0.07150025
5	0xbdd1eed5	-0.10250632
6	0xbe3ddf71	-0.18542267
7	0xbd9bf873	-0.07615747
8	0xbccd250f	-0.025042085
9	0xbe21d63a	-0.15804377
10	0xbe46e868	-0.19424593
11	0xbdb18c7d	-0.08669374
12	0x3d8bc60e	0.06824885
13	0xbe1cd8d2	-0.15317085
14	0x3dc30a9d	0.09523509
15	0x3e3c0856	0.18362555
16	0xbda2acf9	-0.07943148
17	0xbc0379a7	-0.00802461
18	0x3dc5c504	0.096567184
19	0x3dcde5e0	0.10053611
20	0x3bd9f13a	0.006651071
21	0x3e3f19e6	0.18662223
22	0xbd72d307	-0.059283283
23	0xbd5e0841	-0.05420709
24	0x3d6056c1	0.054770235
25	0xbdf92eeb	-0.12167152
26	0xbe3088e9	-0.17239727
27	0xbd2664f8	-0.040623635
28	0xb9a58038	-0.00031566783
29	0xbd72fe0d	-0.059324313
30	0x3e164b7f	0.14677237
31	0xbe131012	-0.14361599
32	0x3e1db245	0.15400036
33	0x3e2dda7f	0.16977881
34	0x3d75537b	0.059894066
35	0x3e0008ce	0.12503359
36	0x3d97c4e3	0.074106
37	0xbd99f68e	-0.0751773
38	0x3e272c7e	0.16325566
39	0x3d3db70a	0.046317138
40	0x3e31b9e0	0.17356062
41	0x3d977dd4	0.07397047
42	0xbe3d499b	-0.1848511
43	0xbe1b2226	-0.15149745
44	0xbc81a004	-0.015823372
45	0xbce881a2	-0.028382126
46	0x3e1d2924	0.15347725
47	0xbd4f3a81	-0.050592903
48	0xbda795fb	-0.081829034
49	0xbe07f71a	-0.13277856
50	0xbe123be4	-0.14280659
51	0xbde3cb96	-0.11122815
52	0xbe2e7f36	-0.17040715
53	0x3d84808c	0.06469831
54	0x3d99db86	0.07512574
55	0xbdc826c6	-0.097730204
56	0x3e38a95f	0.1803336
57	0xbe21143d	-0.15730377
58	0xbbd895a2	-0.0066096345
59	0xbd852b10	-0.06502354
60	0xbdd2afb4	-0.10287419
61	0x3d814267	0.06311493
62	0x3b96eebb	0.0046060956
63	0xbe3faa55	-0.1871732
64	0x3ca1cbf9	0.019750582
65	0x3e07df25	0.13268717
66	0xbe395150	-0.18097425
67	0x3d9fac12	0.07796492
68	0xbd346e29	-0.04405037
69	0x3ce685c0	0.028139949
70	0x3e27609e	0.1634545
71	0xbd10682d	-0.0352556
72	0x3d09560a	0.03352932
73	0xbd7fb7b4	-0.062431052
74	0xbe2b2766	-0.16714248
75	0xbe0d7183	-0.13812833
76	0xbd5e5f53	-0.054290127
77	0xbe2e3e0f	-0.17015861
78	0x3df533ba	0.11972757
79	0x3d1e8204	0.03869821
80	0xbd75615f	-0.059907313
81	0xbd2685e7	-0.040655043
82	0xbd7472b9	-0.05967972
83	0xbdca5587	-0.09879594
84	0x3e34ed97	0.17668758
85	0x3d9ffc3d	0.078117825
86	0x3dbb5b56	0.0914828
87	0x3e09da07	0.13462077
88	0xbc5d8e38	-0.013522677
89	0x3d8dd128	0.06924659
90	0xbc703624	-0.014661346
91	0xbbd9a9d0	-0.0066425577
92	0x3df7a690	0.12092316
93	0x3e01c990	0.12674546
94	0x3d88ebc1	0.066855915
95	0xbcc2b1f7	-0.0237665
96	0x3d0f352f	0.03496283
97	0xbe1a256b	-0.15053336
98	0xbdd75ad8	-0.10515374
99	0xbdbd148c	-0.09232435
100	0x3dc56062	0.09637524
101	0xbd9155e9	-0.07096464
102	0xbe2004c1	-0.15626813
103	0x3e433724	0.19064003
104	0xbe081eac	-0.1329295
105	0x3d8a1e75	0.067440905
106	0x3dcab9ad	0.09898696
107	0x3e229dc6	0.15880498
108	0xbe3d1ea8	-0.18468726
109	0xbe3df397	-0.18549953
110	0xbe3e9e7b	-0.18615143
111	0xbe04582c	-0.1292426
112	0xbe2b1789	-0.16708197
113	0x3cd13dbc	0.025542133
114	0x3dbbd5ca	0.091716364
115	0x3e36f35d	0.17866273
116	0x3c235fe3	0.009971592
117	0x3d7a07d6	0.06104263
118	0x3e11f91f	0.14255188
119	0x3d6667ef	0.056251463
120	0xbdbcd869	-0.092209645
121	0xbe42c72b	-0.19021289
122	0xbe0e5254	-0.13898593
123	0x3ca916f1	0.020640822
124	0xbcaec3a3	-0.021333521
125	0xbe10fb40	-0.14158344
126	0xbdfec558	-0.12439984
127	0x3e4015ae	0.1875827
128	0xbcb71e2f	-0.02235326
129	0xbc8536de	-0.016261514
130	0x3c31d468	0.010853864
131	0x3e044a1a	0.12918893
132	0xbd93ca2a	-0.07216294
133	0x3ce58e9e	0.028022107
134	0x3e0e1646	0.13875684
135	0xbe218399	-0.15772857
136	0x3e2da117	0.16955982
137	0xbd465d3f	-0.04842877
138	0x3e09359d	0.13399358
139	0xbe321389	-0.17390265
140	0x3c9bd3f7	0.019021971
141	0xbe0ef32b	-0.13959949
142	0x3c0b7932	0.008512782
143	0x3e0a8085	0.13525589
144	0xbda50fb1	-0.080596335
145	0xbdabf40f	-0.0839616
146	0x3d3d2631	0.046179
147	0xbd31daca	-0.043421544
148	0x3d278371	0.040896837
149	0xbe041696	-0.12899241
150	0x3e137d99	0.1440338
151	0xbc49de6c	-0.012321096
152	0x3d32aaec	0.043620035
153	0xbe3dc02b	-0.18530338
154	0xbe440f1e	-0.19146392
155	0xbd5a53a9	-0.05330244
156	0x3e38414a	0.17993656
157	0xbe009f9d	-0.12560888
158	0xbd414049	-0.047180448
159	0x3e0c2a87	0.13688098
160	0xbd9b31cb	-0.07577857
161	0x3e3ffaed	0.18748064
162	0xbddc08d9	-0.10743875
163	0x3e0518de	0.12997767
164	0x3d886a37	0.06660884
165	0xbc93d8dc	-0.018047743
166	0x3db73879	0.08946318
167	0xbe2bb6c0	-0.16768932
168	0xbda38ac3	-0.07985451
169	0x3e02daef	0.12778829
170	0x3e2fe007	0.17175303
171	0x3db86d6f	0.09005248
172	0xbe05085b	-0.12991469
173	0x3d1bb753	0.03801663
174	0xbe10d294	-0.14142829
175	0x3cd723b6	0.026262145
176	0x3cbce04a	0.023056168
177	0xbdeec302	-0.116582885
178	0x3e4465bc	0.19179434
179	0xbe0d782f	-0.13815378
180	0xbe0cd520	-0.13753176
181	0x3e1ad0da	0.15118733
182	0x3d8fbc82	0.07018377
183	0xbe0c385f	-0.13693379
184	0x3e2d328d	0.16913815
185	0x3c50d9ac	0.0127472095
186	0xbe090691	-0.13381411
187	0xbdfcb758	-0.123396575
188	0x3dfd1dad	0.12359176
189	0x3dbfc92a	0.09364541
190	0xbe00a2ed	-0.12562151
191	0x3d08c5d8	0.033391804
192	0x3945c080	0.00018859096
193	0x3c9cc3d8	0.019136354
194	0xbca3090e	-0.019901779
195	0x3e15f536	0.14644322
196	0x3e32d89d	0.17465444
197	0xbe1d873c	-0.15383619
198	0x3cc9cbc9	0.024633305
199	0x3bbae7d8	0.0057039075
200	0xbd378acf	-0.044810113
201	0xbe14fcea	-0.14549604
202	0xbdf0d7fb	-0.11759945
203	0xbbbce821	-0.0057649766
204	0xbe050901	-0.12991716
205	0x3d8c633a	0.068548635
206	0xbde85cd3	-0.1134583
207	0x3d1164dd	0.03549658
208	0x3e45f48c	0.19331568
209	0x3da5fb56	0.08104579
210	0x3d96af23	0.073576234
211	0x3d9b0d9c	0.07570955
212	0xbd0c3a4d	-0.034235287
213	0x3e25b7ef	0.16183446
214	0xbe35cd74	-0.17754155
215	0xbd889470	-0.06668937

bias f4 [8]
0	0x3df68df8	0.12038797
1	0x3e3448cf	0.176059
2	0xbd93fe0a	-0.072261885
3	0xbd36b217	-0.044603433
4	0x3acc83d8	0.0015603257
5	0xbd7028b8	-0.058632582
6	0xbd9ad6f3	-0.075605296
7	0x3dada522	0.08478762

weight f4 [8, 8, 3, 3]
0	0xbd95caa0	-0.07314038
1	0x3dd9b8c5	0.10630945
2	0x3db0ea5e	0.08638452
3	0x3dd5e170	0.104433894
4	0xbd6651de	-0.05623042
5	0x3d90afe8	0.070648015
6	0x3d65a27f	0.05606317
7	0x3d31406f	0.04327434
8	0x3cdf2f3b	0.0272442
9	0x3c9b693a	0.018971074
10	0x3dbcede8	0.092250645
11	0xbde30cbc	-0.11086413
12	0xbd9f8de7	-0.077907376
13	0x3d2e4b9e	0.042552583
14	0x3dbdf93e	0.09276055
15	0xbdc33f24	-0.095335275
16	0xbde23241	-0.110447414
17	0x3d75dd84	0.060025707
18	0x3d3e8bf5	0.046520192
19	0xbcc57e99	-0.024108218
20	0xbd0ac0c1	-0.03387523
21	0xbdae85a8	-0.08521587
22	0xbd2a3e7c	-0.041563496
23	0x3bbbf3ee	0.005735866
24	0x3d6ebf7f	0.058288094
25	0x3d195821	0.037437562
26	0xbda42070	-0.080139995
27	0xbda980fb	-0.08276554
28	0x3dade1c6	0.084903285
29	0xbd437645	-0.047720212
30	0x3ddcd532	0.10782851
31	0x39819f50	0.00024723494
32	0x3d0b641d	0.034031022
33	0xbd817f4e	-0.063231096
34	0xbd215d6f	-0.039395746
35	0x3d4daf56	0.05021604
36	0x3ce33051	0.027733
37	0x3df8ef41	0.12155009
38	0x3d612035	0.054962356
39	0xbcd5823e	-0.02606308
40	0xbd7b2f0d	-0.061324168
41	0xbd2b40ba	-0.041809775
42	0x3ca4b2fb	0.020104876
43	0x3da9426b	0.08264621
44	0x3d08765d	0.033316005
45	0xbd467ecd	-0.04846077
46	0xbd941452	-0.07230438
47	0xbc996f3a	-0.018729795
48	0x3d01cf41	0.031691793
49	0x3df72aaa	0.120686844
50	0x3db6540a	0.08902748
51	0x3db09539	0.08622212
52	0xbd66bc58	-0.056331962
53	0x3d448c04	0.04798509
54	0x3d5097e3	0.0509261
55	0xbda09331	-0.078405745
56	0x3d9d158e	0.07670127
57	0x3d9a0d25	0.07522038
58	0x3d48c2dd	0.04901396
59	0xbc2ced0e	-0.010554565
60	0xbd3dc873	-0.04633374
61	0xbbdad9a6	-0.0066787777
62	0xbda93d48	-0.082636416
63	0xbc9f0202	-0.019410137
64	0x3de0e916	0.109819576
65	0x3d596e55	0.053083736
66	0x3ce62a9a	0.028096486
67	0xbc9ccb94	-0.019140042
68	0x3dac4fd7	0.08413666
69	0xbd2b95eb	-0.04189102
70	0x3dd0ea5b	0.1020095
71	0x3d47da28	0.048792034
72	0x3d8477f4	0.06468192
73	0x3bc8b31a	0.006124866
74	0xbbe93944	-0.0071174223
75	0xbdde131d	-0.10843489
76	0x3d3232fc	0.043505654
77	0xbdd28fc4	-0.10281327
78	0x3d1e4a68	0.038645178
79	0x3c9a8345	0.018861422
80	0xbcb3b69d	-0.021937663
81	0x3db1e8f9	0.08687014
82	0x3dd0e7f3	0.10200491
83	0x3dc0eb2d	0.09419856
84	0x3d97efcc	0.074187845
85	0xbc4d3375	-0.012524475
86	0x3dc0729b	0.09396859
87	0x3c405183	0.011738184
88	0xbd1d369b	-0.038382154
89	0xbd91e48f	-0.07123672
90	0xbd08cfb0	-0.03340119
91	0xbd626b06	-0.055277847
92	0x3dde98aa	0.10868962
93	0x3db48299	0.08813972
94	0xbbcdb474	-0.006277615
95	0x3dd3a1fc	0.103336304
96	0x3d1a2b4c	0.037638947
97	0xbd5cbbd6	-0.05389007
98	0xbdbd19f8	-0.09233469
99	0xbdc75c76	-0.097344324
100	0xbd8c3dd2	-0.06847729
101	0xbdbd2b12	-0.09236731
102	0xbd3aa34e	-0.045565896
103	0x3d8a8382	0.067633644
104	0x3d7cd4b5	0.06172629
105	0xbcff310e	-0.03115132
106	0xbc35ee13	-0.011104125
107	0xbd1ba014	-0.03799446
108	0x3d235dbd	0.039884318
109	0x3d94cd7e	0.07265757
110	0xbd07ddf4	-0.033170655
111	0x3da47949	0.08030946
112	0x3d766335	0.060153205
113	0x3d9f4338	0.07776493
114	0x3da8cc23	0.08242061
115	0x3dbd7863	0.092514776
116	0xbd40249a	-0.046909906
117	0xbdaf6c1e	-0.085655436
118	0xbc3121c9	-0.010811278
119	0x3da93666	0.08262329
120	0xbd1563ee	-0.036472254
121	0x3d94416e	0.07239042
122	0x3dc2b963	0.09508016
123	0xbc43e57e	-0.011956571
124	0xbce494f9	-0.027903067
125	0xbcf94af4	-0.030431248
126	0xbde43ec3	-0.11144783
127	0x3d807416	0.06272142
128	0x3c7b7241	0.0153470645
129	0xbdf5de85	-0.12005333
130	0x3d964211	0.0733682
131	0xbc531e58	-0.0128856525
132	0x3ccb042c	0.024782263
133	0xbdd9a515	-0.1062719
134	0xbd881f8c	-0.06646642
135	0xbb88dab8	-0.004176464
136	0x3d550b9a	0.052013017
137	0x3d08d4d3	0.03340609
138	0x3cf4f91f	0.029903946
139	0xbdf5bb14	-0.11998573
140	0xbb85cd8d	-0.0040833415
141	0xbdd1c7b6	-0.1024317
142	0xbdc05080	-0.09390354
143	0x3d9db923	0.07701328
144	0x3cabf821	0.02099234
145	0xbd83eb87	-0.06441408
146	0xba2120b8	-0.0006146538
147	0xbd3c2f49	-0.045943532
148	0x3dd29340	0.10281992
149	0xbd73f3d5	-0.05955871
150	0x3c3bf1f6	0.011471262
151	0xbc5ca03c	-0.013465937
152	0xbb1bd8d2	-0.0023780358
153	0x3d6f8862	0.058479674
154	0x3c5db853	0.013532716
155	0x3bb9700a	0.005659108
156	0xbdbdb4ca	-0.092629984
157	0xbdada819	-0.08479328
158	0x3c360222	0.011108907
159	0xbd926c1f	-0.07149529
160	0xbdb46d75	-0.0880994
161	0xbdc5b273	-0.09653177
162	0x3ca33da0	0.019926846
163	0x3da9bfbc	0.082885236
164	0x3db54d25	0.08852605
165	0x3c7c60d4	0.015403945
166	0xbbd21767	-0.006411481
167	0x3da3553c	0.079752415
168	0x3dceb2f1	0.10092724
169	0x3ce81460	0.028330028
170	0x3cbaed91	0.022818359
171	0x3dde09df	0.108417265
172	0xbd315b32	-0.04329986
173	0xbc801f0c	-0.015639804
174	0x3cf8d75d	0.03037613
175	0xbd11a8c1	-0.035561327
176	0x3d0dcf67	0.034621622
177	0xbc06666e	-0.008203132
178	0x3dc27372	0.09494676
179	0xbd8494d0	-0.06473696
180	0xbde1fe59	-0.11034841
181	0x3d0b718c	0.034043834
182	0xbd92bc51	-0.07164825
183	0xbdcd54f9	-0.10025973
184	0xbda5bd94	-0.080928
185	0x3ddd6623	0.10810497
186	0x3dd8ef1a	0.1059248
187	0x3dee46a1	0.11634565
188	0xbd51c9d5	-0.051217873
189	0xbd9b0c99	-0.07570762
190	0x3dc3822b	0.09546312
191	0x3df82db0	0.12118089
192	0x3dca2e38	0.09872097
193	0x3dda88e2	0.106706396
194	0x3d89bbef	0.067252986
195	0xbdda52b8	-0.106603086
196	0x3dcac1c2	0.099002376
197	0x3db80787	0.08985811
198	0x3dbc26e0	0.09187102
199	0xbd4caf9a	-0.049972154
200	0xbb0e1412	-0.0021679443
201	0x3db9a6d1	0.09065021
202	0xbd6bd8cc	-0.0575798
203	0xbbe0ea2a	-0.006863852
204	0x3c32a31a	0.010903144
205	0x3db5781e	0.08860801
206	0xbdc4ed2c	-0.096155494
207	0x3cf12ed5	0.029441277
208	0xbce3f2dd	-0.027825767
209	0xbdf7385d	-0.12071297
210	0x3d9f62a5	0.07782487
211	0xbd9c9386	-0.07645325
212	0x3dccd6f3	0.10001936
213	0x3d2f7bc4	0.04284264
214	0xbd14957e	-0.03627538
215	0x3c20bf56	0.009811243
216	0xbd521ccc	-0.051296994
217	0xbd130f32	-0.035903163
218	0xbd130f93	-0.035903525
219	0xbdae0e22	-0.08498789
220	0xbd6e9459	-0.058246944
221	0xbd27c1a9	-0.040956173
222	0xbd69a4e4	-0.057042018
223	0x3bfa4df6	0.007638688
224	0xbda6b750	-0.08140433
225	0xbdafa3fb	-0.08576199
226	0x3d6d44b7	0.05792686
227	0x3cabb8f4	0.020962216
228	0xbddb9964	-0.10722616
229	0xbd7a7c0c	-0.061153457
230	0xbde0fd2b	-0.10985788
231	0x3d45a670	0.04825443
232	0x3d790841	0.060798887
233	0xbdc2857d	-0.09498117
234	0xbd488171	-0.04895157
235	0xbc9ff429	-0.019525604
236	0xbdaf1c39	-0.08550305
237	0x3dc26597	0.09492033
238	0x3c05eb0d	0.008173716
239	0xbc90cbbb	-0.017675271
240	0x3db82309	0.089910574
241	0x3d9ff128	0.07809669
242	0xbd5950ff	-0.05305576
243	0xbdd07ba0	-0.101798296
244	0x3daa29df	0.083087675
245	0x3cd35aea	0.025800187
246	0x3dce8551	0.10084022
247	0xbcaa234a	-0.02076878
248	0x3d050351	0.032473866
249	0x3dcda5c8	0.10041386
250	0xbda81b0b	-0.08208283
251	0xbdb93662	-0.09043576
252	0x3c98a56b	0.018633565
253	0xbd7ad80d	-0.0612412
254	0x3d204209	0.039125476
255	0xbcf0838b	-0.0293596

bias f4 [8]
0	0xbd413564	-0.047170058
1	0xbd6ba6d9	-0.057532165
2	0x3cf80c7f	0.030279396
3	0x3de35e4b	0.11101969
4	0xbdf1cf14	-0.11807075
5	0x3d2983be	0.041385405
6	0xbcee0a72	-0.029057715
7	0xbd5887de	-0.052863948

weight f4 [16, 8, 3, 3]
0	0xbd6baa09	-0.057535205
1	0xbcf05c85	-0.029340992
2	0xbd445276	-0.047930203
3	0x3d872399	0.065985866
4	0x3d89d683	0.06730368
5	0xbd9fcbd0	-0.07802546
6	0xbde8a394	-0.11359325
7	0x3d3d956b	0.046285074
8	0xbc577447	-0.013150281
9	0x3d694fa1	0.056960706
10	0xbd9737bb	-0.073836766
11	0xbd3f6c5a	-0.04673419
12	0xbddbab4e	-0.10726033
13	0x3db39678	0.08768934
14	0x3db1406c	0.086548656
15	0xbd8b7547	-0.06809478
16	0xbc8b8a01	-0.017033579
17	0x3dd6e82d	0.10493503
18	0xbddc5c89	-0.10759837
19	0x3cd966c3	0.026538258
20	0xbd494d5d	-0.049146045
21	0xbdbf837c	-0.093512505
22	0xbc857fe7	-0.01629634
23	0xbc773769	-0.015088894
24	0x3dba6447	0.09101158
25	0xbca18d2e	-0.01972064
26	0x3d7e85d8	0.062139362
27	0xbc1382c4	-0.009003345
28	0xbd912b52	-0.07088341
29	0xbd58fb08	-0.052973777
30	0xbbe4e6b7	-0.006985511
31	0xbd90d252	-0.070713654
32	0xbc76bc7f	-0.015059589
33	0xbdea5481	-0.11441899
34	0xbd4f7d18	-0.050656408
35	0x3d6e1258	0.058122963
36	0x3d9bb6c2	0.07603218
37	0xbc99767b	-0.018733254
38	0xbdf76ae9	-0.12080938
39	0x3d842f93	0.064543866
40	0x3c734289	0.014847406
41	0x3d001dc1	0.031278376
42	0xbdf85e32	-0.12127341
43	0xbda221d4	-0.079166085
44	0xbcbd2db6	-0.023093086
45	0x3d34a98b	0.044107
46	0xbd07a9a8	-0.03312078
47	0x3dd22d28	0.10262519
48	0x3de25944	0.11052182
49	0xbdb621a4	-0.08893135
50	0x3df3aab3	0.11897793
51	0xbd74693d	-0.059670676
52	0xbdce1079	-0.10061736
53	0xbcd52276	-0.026017409
54	0xbdb21d45	-0.08696989
55	0xbdf78baf	-0.120871894
56	0x3bfbf608	0.0076892413
57	0x3db4b3b6	0.0882334
58	0xbda12b25	-0.07869557
59	0x3d25dd36	0.040494166
60	0x3d91f64c	0.071270555
61	0x3c9aaa47	0.018880023
62	0x3c8b83a8	0.017030552
63	0xbdc519e7	-0.09624081
64	0xbd232e53	-0.0398391
65	0xbbc70972	-0.006074124
66	0x3c7495bd	0.0149282785
67	0xbc25d06a	-0.010120491
68	0xbd8ab727	-0.06773215
69	0x3d949bb9	0.07256264
70	0x3d92fdce	0.07177316
71	0xbd8d3b2d	-0.068960525
72	0x3d827040	0.06369066
73	0xbd3fdd65	-0.046841998
74	0x3d8e5781	0.06950284
75	0x3d5c216d	0.053742815
76	0x3d5cd94e	0.053918175
77	0x3d2c19d5	0.042016823
78	0xbdef51c6	-0.11685519
79	0x3d177e33	0.036985587
80	0x3dbb0418	0.0913164
81	0xbdefae83	-0.11703207
82	0xbdc38a48	-0.095478594
83	0xbd93a320	-0.07208848
84	0xbdd59ba1	-0.104300745
85	0xbc30466a	-0.0107589755
86	0x3d953088	0.07284647
87	0x3d6ed153	0.058305096
88	0xbd925f35	-0.071470656
89	0x3c965462	0.018350784
90	0xbdca9e20	-0.09893441
91	0x3da6ee55	0.08150927
92	0xbd996e66	-0.0749176
93	0xbd8f3542	-0.0699258
94	0xbddec68f	-0.10877716
95	0x3d968caa	0.07351048
96	0x3dc0ff3a	0.094236806
97	0xbca3216a	-0.019913394
98	0x3dcd288a	0.10017498
99	0x3de41a6f	0.11137854
100	0xbdba51e4	-0.09097651
101	0xbdb71e68	-0.089413464
102	0x3dd2177d	0.10258386
103	0x3c95c6d0	0.018283278
104	0xbda2a0b3	-0.07940807
105	0xbd6b212a	-0.057404675
106	0xbc098334	-0.008393098
107	0x3bf8687c	0.007580815
108	0x3d9a32f9	0.075292535
109	0x3c95165a	0.018199135
110	0x3d8dfa37	0.0693249
111	0xbd3bd571	-0.04585785
112	0x3d3f19ae	0.04665535
113	0xbda65af8	-0.0812282
114	0xbda10a11	-0.07863248
115	0x3a774db3	0.00094338803
116	0x3d9ffc87	0.07811838
117	0x3d5f6f27	0.054549363
118	0xbda5e8d5	-0.0810105
119	0xbce1102e	-0.027473535
120	0x3dcbf138	0.09958118
121	0x3ceb3c0a	0.028715152
122	0x3dbd0afd	0.092306115
123	0xbd819398	-0.063269794
124	0xbc2c12a4	-0.010502491
125	0xbdee331f	-0.11630844
126	0xbdea9d09	-0.11455733
127	0xbd9d11de	-0.076694235
128	0xbd56f785	-0.052482147
129	0xbd2afb45	-0.041743536
130	0xbdac4fc2	-0.0841365
131	0x3c08e9f1	0.008356557
132	0x3d443564	0.04790248
133	0x3d0060ff	0.031342503
134	0x3ca84125	0.020538876
135	0x3dd6105c	0.10452339
136	0xbd34a50d	-0.044102717
137	0x3d7e7fed	0.06213372
138	0x3d9b0b72	0.075705424
139	0xbca6a360	-0.020341575
140	0x3dad55fe	0.08463667
141	0x3d03c8c9	0.032173906
142	0xbc271c37	-0.010199598
143	0x3cc456ef	0.023967234
144	0xbdefb535	-0.117044844
145	0xbd2de29e	-0.042452447
146	0x3db32b15	0.087484516
147	0xbd320499	-0.043461416
148	0xbdae51b9	-0.08511681
149	0x3ccf1743	0.025279647
150	0x3dbc53dd	0.09195683
151	0xbd6bcee5	-0.057570357
152	0xbc997c0f	-0.018735914
153	0x3b53e854	0.0032334523
154	0x3df67fb0	0.12036073
155	0xbd993906	-0.074815795
156	0xbd85234b	-0.06500872
157	0x3dacdb66	0.084402844
158	0xbdaaca64	-0.08339384
159	0x3d2a3de4	0.04156293
160	0x3d0411c5	0.03224351
161	0x3d9dcfaf	0.07705628
162	0xbd655a7b	-0.055994492
163	0xbc8f5b4b	-0.017499587
164	0x3de2918e	0.110629186
165	0x3da3a6f3	0.079908274
166	0xbda6870e	-0.081312284
167	0xbddf78b4	-0.10911694
168	0x3d6e05db	0.058111053
169	0x3da0cb87	0.0785132
170	0xbdf29bf4	-0.11846152
171	0x3d961831	0.07328833
172	0x3defdfc3	0.11712601
173	0x3ccbf01d	0.024894768
174	0x3d64bb99	0.05584297
175	0x3def3eea	0.11681922
176	0x3debf6e2	0.115216985
177	0x3d0f8859	0.03504214
178	0x3dc0ba56	0.09410541
179	0xbcee127b	-0.029061547
180	0x3dce66ba	0.10078187
181	0x3d709f76	0.058745824
182	0xbd11f9a4	-0.035638466
183	0xbd4c0d35	-0.049817283
184	0xbdce6199	-0.10077209
185	0x3dc454e3	0.09586503
186	0x3c67ef0a	0.014156112
187	0xbd2780f5	-0.040894467
188	0x3dcf5a87	0.101246886
189	0x3c586f37	0.013210109
190	0x3d089e1c	0.03335391
191	0xbd82b48e	-0.06382094
192	0x3c1e001b	0.00964358
193	0xbdde80b2	-0.108643904
194	0x3d948d36	0.07253496
195	0xbceecca0	-0.029150307
196	0x3c1529c5	0.009104197
197	0xbd1efc80	-0.03881502
198	0x3c907e19	0.017638253
199	0xbdd2546b	-0.10270008
200	0x3dd7749a	0.10520287
201	0xbd1baca4	-0.03800644
202	0xbd10bc8d	-0.035336066
203	0xbd6e483b	-0.058174353
204	0xbc03a593	-0.008035081
205	0x3de6e524	0.11274174
206	0x3cdb643e	0.026781198
207	0xbbece64b	-0.0072296015
208	0x3d6fef9c	0.05857812
209	0xbd79c226	-0.06097617
210	0xbc4831b5	-0.012218882
211	0xbd959a52	-0.07304825
212	0x3cde55c4	0.027140506
213	0x3db92418	0.090400875
214	0xbace7cad	-0.0015753709
215	0x3d864554	0.06556192
216	0x3dc6d511	0.09708608
217	0x3dc99c31	0.09844244
218	0x3d770487	0.060307052
219	0xbcf35f00	-0.029708385
220	0xbcecc8aa	-0.028904278
221	0x3bd7d4dc	0.006586654
222	0x3c8c9a32	0.01716337
223	0xbb87417a	-0.0041276785
224	0xbc99bb7b	-0.018766155
225	0xbdc27a3c	-0.094959706
226	0xbcbd6dcc	-0.023123644
227	0xbdce109b	-0.10061761
228	0x3decc75f	0.115614645
229	0xbcdb31dd	-0.026757175
230	0xbc381f15	-0.011237879
231	0xbcc420f5	-0.023941496
232	0xbdc6584d	-0.09684811
233	0x3cacab1c	0.021077685
234	0x3dca3c0d	0.09874735
235	0x3d2b9171	0.04188675
236	0x3a98dfd2	0.0011663383
237	0x3da822c6	0.082097575
238	0xbde97bec	-0.11400589
239	0x3cbc4da7	0.022986246
240	0xbd0f7923	-0.035027634
241	0x3d011eee	0.031523637
242	0xbd8529a5	-0.06502084
243	0x3dc0b5b4	0.09409657
244	0x3d28b41b	0.041187387
245	0x3c90fa71	0.017697545
246	0x3d8bcf50	0.06826651
247	0x3cfb2c5e	0.030660804
248	0xbd081c2d	-0.033229996
249	0x3d0ef6e4	0.034903422
250	0x3cfbed63	0.030752843
251	0x3d73480f	0.059394892
252	0x3d889c10	0.066703916
253	0xbdcbdf01	-0.09954644
254	0x3d7f611b	0.062348466
255	0xbd55213c	-0.052033648

bias f4 [16]
0	0xbca0a2e4	-0.019608922
1	0xbdcdd9ba	-0.10051294
2	0xbbc08fa5	-0.0058764988
3	0xbdf1813d	-0.11792228
4	0x3d4bfa8c	0.049799487
5	0xbdebbd46	-0.115107104
6	0xbdc4f312	-0.096166745
7	0xbd8992ce	-0.06717454
8	0x3d49d129	0.049271736
9	0xbde52d2a	-0.11190255
10	0xbc12e62e	-0.008966012
11	0xbdd6691d	-0.104692675
12	0xbd0b5a24	-0.03402151
13	0xbd8a304a	-0.06747492
14	0x3d98d82e	0.07463108
15	0x3dd6f878	0.104966104

weight f4 [16, 16, 3, 3]
0	0xbd9fddf2	-0.078060046
1	0x3c1dce1c	0.00963166
2	0xbd5daa45	-0.05411746
3	0xbda6afda	-0.0813901
4	0x3cab3055	0.02089707
5	0xbc3aa3a9	-0.011391559
6	0xbcce95ef	-0.025217978
7	0xbc3ad6df	-0.011403768
8	0xbc96e91e	-0.018421706
9	0xbd9964a2	-0.07489897
10	0x3d925e11	0.07146848
11	0x3d7d2fa2	0.061813004
12	0xbd6c6953	-0.057717633
13	0xbd02a793	-0.031898092
14	0x3d75377b	0.059867363
15	0xbc2ef0d3	-0.010677534
16	0xbc8f261e	-0.01747423
17	0x3d9a0eec	0.07522377
18	0x3dabbdd9	0.0838582
19	0x3d0b7536	0.034047328
20	0xbd539333	-0.051654052
21	0xbab5f8c2	-0.001388334
22	0xbd961d67	-0.07329827
23	0xbd98cafb	-0.074605905
24	0xbcea7a90	-0.028622895
25	0xbd99c728	-0.07508689
26	0x3da1ea7a	0.07906051
27	0xbc92b2f5	-0.017907599
28	0xbcf8fdab	-0.030394396
29	0xbda3c120	-0.0799582
30	0xbccc98c3	-0.024975186
31	0xbd400b2e	-0.04688566
32	0x3beb413c	0.0071794074
33	0x3d23e4c5	0.040013094
34	0xbd4f95fd	-0.05068015
35	0xbd75ccd0	-0.060009778
36	0xbd8483e7	-0.06470471
37	0x3d0c9bca	0.03432826
38	0xbda808b2	-0.082047835
39	0x3d3efff1	0.046630803
40	0xbda06ec3	-0.07833626
41	0xbb93f9ca	-0.004515861
42	0xbd8b9dc2	-0.06817199
43	0xbd134f19	-0.035964105
44	0xbd90e956	-0.07075755
45	0xbd361775	-0.044455964
46	0xbd2de389	-0.042453323
47	0xbd77d804	-0.060508743
48	0x3c884d0b	0.0166383
49	0xbd23e68a	-0.04001478
50	0x3c4273f8	0.011868469
51	0x3c5c7f25	0.013458048
52	0x3ce39cfa	0.027784813
53	0xbd3e36c1	-0.046438936
54	0xbbf8e350	-0.007595457
55	0x3d3e27e8	0.046424776
56	0xbb02e556	-0.001997312
57	0xbc242bd8	-0.010020219
58	0xbd428dc9	-0.047498498
59	0x3d003803	0.031303417
60	0x3ce78a84	0.028264292
61	0x3cc88a48	0.02448
62	0xbdad3952	-0.084581986
63	0xbd26d061	-0.04072607
64	0x3d42f3f1	0.047595922
65	0x3ca56947	0.020191802
66	0x3d1e8488	0.03870061
67	0xbc96bcbb	-0.01840054
68	0x3d9f561f	0.07780098
69	0x3c99f1c1	0.018792035
70	0x3ba53607	0.005041841
71	0x3cb3b309	0.021935957
72	0x3d00d6d4	0.031454876
73	0xbd77932e	-0.060443096
74	0xba6c2bcf	-0.00090092135
75	0xbc99b2e1	-0.018762054
76	0xbda97385	-0.08273987
77	0x3cb037da	0.021511007
78	0x3d45d486	0.04829838
79	0x3c981460	0.018564403
80	0x3d931709	0.07182128
81	0x3a73ecbb	0.000930499
82	0x3d81a662	0.06330563
83	0xbca96047	-0.020675791
84	0x3d656750	0.05600673
85	0x3d4158f8	0.047203988
86	0x3da9e6b2	0.08295955
87	0x3d75035e	0.059817664
88	0x3d946e0b	0.072475515
89	0xbd4a9ee4	-0.049467936
90	0x3d945f6f	0.07244765
91	0xbd342a5f	-0.04398572
92	0x3d969924	0.07353428
93	0xbd810c13	-0.06301131
94	0x3d76ef23	0.060286652
95	0xbd4d2213	-0.050081324
96	0xbd1d35e8	-0.038381487
97	0x3d91252e	0.070871696
98	0xbd9418da	-0.072313026
99	0xbd14c771	-0.036323015
100	0x3ba37af5	0.004989023
101	0xbd9a590e	-0.07536517
102	0xbd908c6e	-0.07058035
103	0xbc531e4e	-0.012885643
104	0xbd9abda6	-0.07555704
105	0xbda070a9	-0.07833988
106	0x3da34b21	0.07973314
107	0x3cd770cb	0.026298901
108	0x3c127bab	0.008940618
109	0xbd039ab4	-0.03212996
110	0x3d83f1e3	0.064426206
111	0x3d560a16	0.052255712
112	0xbc818784	-0.01581169
113	0x3d040a50	0.032236397
114	0xbcea1376	-0.028573733
115	0xbcf4ba7e	-0.029874083
116	0x3d4682cc	0.04846458
117	0x3c2590e0	0.010105342
118	0xbd5ef02f	-0.054428276
119	0xbb149a0e	-0.0022674832
120	0x3d42a84f	0.047523793
121	0x3cbc2bb3	0.022970056
122	0x3bd03dd3	0.0063550263
123	0xbca967be	-0.020679351
124	0xbd66e373	-0.056369256
125	0xbce0cdba	-0.027441848
126	0xbd00221c	-0.03128253
127	0x3d618fa3	0.055068623
128	0x3d41a837	0.047279563
129	0x3d13358e	0.035939746
130	0x3bf07caa	0.00733908
131	0x3af44b0d	0.001863809
132	0x3c12fe1d	0.008971718
133	0xbbc60df3	-0.0060441433
134	0xbd5da8aa	-0.05411593
135	0x3c1aa5a9	0.0094389105
136	0xbd91324a	-0.0708967
137	0xbd2db11f	-0.042405244
138	0xbd94a290	-0.07257569
139	0xbd86b43d	-0.065773465
140	0xbc98b476	-0.018640738
141	0x3bd39a7c	0.006457625
142	0xbcf1a48f	-0.029497413
143	0xbda584e7	-0.0808199
144	0xbce2e05e	-0.027694877
145	0xbd7e1a7b	-0.062036972
146	0xbd18dbb5	-0.037318904
147	0x3d86d632	0.06583823
148	0x3d0a1d93	0.03371961
149	0x3c8b87bb	0.017032495
150	0xbd2b7037	-0.041855063
151	0xbca69f30	-0.020339578
152	0x3db08dfb	0.086208306
153	0x3da732c5	0.081639804
154	0x3d38a57c	0.045079693
155	0xbcb2873f	-0.021793006
156	0xbd53e100	-0.05172825
157	0xbd3c5ed6	-0.04598888
158	0xbd2f3a52	-0.042780228
159	0xbd550350	-0.052005112
160	0xbd8f484e	-0.06996213
161	0x3d35a35b	0.04434524
162	0xbbd68cdb	-0.006547553
163	0x3d4d9b26	0.05019679
164	0xbccf69b3	-0.025318956
165	0xbd19cff7	-0.037551846
166	0x3d789a5f	0.060694095
167	0xbcf747cb	-0.0301856
168	0x3d957cbf	0.07299184
169	0xbaa2a2fe	-0.0012408195
170	0x3d0684c2	0.03284145
171	0x3da87479	0.082253404
172	0xbd2626ea	-0.040564455
173	0x3ca56a53	0.0201923
174	0xbc857f9c	-0.0162962
175	0x3d1ee28d	0.038790274
176	0x3da8823c	0.08227965
177	0xbd0a13c6	-0.033710264
178	0x3cc58936	0.024113279
179	0x3ab3a2ac	0.0013705096
180	0xbb91e870	-0.0044527575
181	0xbca226a2	-0.019793812
182	0xbc878eef	-0.016547648
183	0x3d144906	0.036202453
184	0xbb4e6b6c	-0.0031497134
185	0xbc876ddb	-0.016531875
186	0x3d7c1a94	0.061548784
187	0x3da64ab4	0.08119717
188	0x3d535caf	0.05160206
189	0x3b9ea1f4	0.0048410837
190	0x3d2aaa5e	0.04166638
191	0x3cc1d858	0.023662731
192	0xbd0437e9	-0.032279883
193	0xba1c4620	-0.0005961377
194	0xbd948fd7	-0.07253998
195	0xbd4463aa	-0.04794661
196	0xbd28e5ac	-0.041234657
197	0x3b0a33a0	0.00210879
198	0x3d1b70a2	0.037949212
199	0x3d81539a	0.06314774
200	0xbd4671e2	-0.04844845
201	0x3d54fafd	0.051997174
202	0x3d2dbf4c	0.042418763
203	0x3cef4764	0.029208846
204	0xbd5bd64f	-0.053671177
205	0xbda4e883	-0.080521606
206	0x3cbf5376	0.023355227
207	0x3d8f2e1b	0.06991216
208	0xbd8d8056	-0.06909244
209	0xbd61ef28	-0.055159718
210	0xbc9f6551	-0.019457491
211	0x3d4a3359	0.049365375
212	0x3cbe7535	0.023249248
213	0xbd978839	-0.07399029
214	0x3d193d5f	0.037412044
215	0x3c01c2fc	0.007920023
216	0xbc90bf38	-0.017669305
217	0x3d297cf9	0.04137895
218	0xbcdb5fad	-0.02677902
219	0x3d5017d9	0.050803993
220	0x3d29e5b6	0.041478835
221	0x3d816658	0.06318349
222	0xbd131274	-0.03590627
223	0xbd687f40	-0.05676198
224	0xbd97fa83	-0.07420828
225	0x3cf0f8c9	0.029415505
226	0xbcbb0aef	-0.022832362
227	0x3d5a93ab	0.053363483
228	0xbd487c12	-0.048946448
229	0xbd806afa	-0.06270404
230	0xbd641c55	-0.055691082
231	0x3d7fca21	0.062448625
232	0xbd61529a	-0.055010416
233	0x3d142219	0.03616533
234	0x3dadd923	0.08488681
235	0x3cdb2e45	0.026755461
236	0xbd672ba7	-0.056438114
237	0x3b221dc2	0.0024736975
238	0xbd073b43	-0.0330155
239	0xbd897caf	-0.06713235
240	0xbd4f7349	-0.050647054
241	0xbd9d53a9	-0.076819725
242	0xbcc72e7c	-0.024314158
243	0x3d4a7868	0.049431235
244	0x3d42d3df	0.047565337
245	0x3ccb3b43	0.024808532
246	0x3c391bfb	0.011298175
247	0x3d93318f	0.07187187
248	0xbae04542	-0.0017110484
249	0xbd54ee6b	-0.051985186
250	0x3d1ae30d	0.03781419
251	0x3d54b0d1	0.051926438
252	0x3c9dbd67	0.019255353
253	0x3d96f473	0.07370844
254	0x3d1e0c83	0.03858615
255	0xbcd92e84	-0.026511438

bias f4 [16]
0	0x3bd24fb4	0.0064181928
1	0x3d4473ad	0.04796188
2	0x3d969b46	0.07353835
3	0x3cd98c84	0.02655626
4	0xbcf8dbbb	-0.030378213
5	0x3d3ae6f1	0.0456304
6	0xbd43e2c4	-0.047823682
7	0x3d9b23a2	0.07575156
8	0x3d1101c1	0.035402063
9	0xbda65caa	-0.08123143
10	0x3bde9e35	0.006793762
11	0xbcb7e113	-0.022446191
12	0x3d4e2b96	0.050334536
13	0xbda4df9a	-0.08050461
14	0xbd0ad49a	-0.03389416
15	0xbd947823	-0.07249477

weight f4 [32, 16, 3, 3]
0	0x3d9c0b26	0.07619314
1	0xbcc33d04	-0.023832805
2	0x3d8a97d7	0.067672424
3	0xbd7dc80c	-0.061958358
4	0x3d32dcd3	0.043667626
5	0xbd96d889	-0.073655196
6	0x3d88c074	0.066773325
7	0x3d3f7dc9	0.046750817
8	0x3d26324e	0.040575318
9	0xbd911a55	-0.070851006
10	0xbd49b840	-0.04924798
11	0x3dac1c5f	0.08403849
12	0xbd936cf6	-0.07198517
13	0x3d7eda20	0.06221974
14	0xbd760a9f	-0.060068723
15	0xbd9e0be2	-0.0771711
16	0xbd197cb7	-0.037472453
17	0xbac89b4f	-0.0015305075
18	0x3d148c68	0.036266714
19	0xbd32871f	-0.043585893
20	0xbd2b95c1	-0.041890863
21	0xbd630eef	-0.055434164
22	0x3d1c55de	0.038167827
23	0xbd0ba69f	-0.03409445
24	0xbc5dc1ca	-0.013534972
25	0xbd1f7247	-0.038927343
26	0xbda948ba	-0.082658246
27	0xbd0526da	-0.032507755
28	0x3d877e0d	0.06615839
29	0xbd9781e3	-0.07397821
30	0xbcc72de2	-0.02431387
31	0x3cc9e09f	0.02464324
32	0xbc97afcf	-0.01851645
33	0xbd0cbe5e	-0.034361236
34	0x3bd2b146	0.006429824
35	0xbd760eba	-0.060072638
36	0xbdaed1c4	-0.08536103
37	0x3d38788e	0.045036845
38	0x3d3d7dee	0.046262674
39	0xbd73e2f3	-0.059542608
40	0xbc04feef	-0.0081174215
41	0x3d17c576	0.037053548
42	0x3d2ec6ee	0.042670183
43	0xbc5d32ba	-0.013500864
44	0x3cce9146	0.025215756
45	0x3bdd6590	0.006756492
46	0x3c18be82	0.009322764
47	0xbd4fdf4b	-0.05075006
48	0x3c020790	0.007936373
49	0xbc44d49e	-0.0120135825
50	0xbb25d32d	-0.0025302873
51	0x3d6dfc62	0.05810202
52	0xbc46ace0	-0.012126178
53	0x3d33adc3	0.043866884
54	0xbd5b9a46	-0.053613923
55	0x3cf325d4	0.029681124
56	0xbd26bd96	-0.040708147
57	0xbcf258b2	-0.029583309
58	0x3d06d918	0.03292188
59	0xbdab1c4a	-0.08355005
60	0xbd8daa50	-0.0691725
61	0xbcb846a0	-0.022494614
62	0xbd95e15b	-0.07318374
63	0xbc4e7702	-0.012601616
64	0xbc48092d	-0.012209219
65	0xbc1f1fba	-0.009712154
66	0xbc4ed5c7	-0.012624211
67	0xbd0d5890	-0.034508288
68	0x3d915019	0.070953555
69	0x3b0b30ed	0.0021238879
70	0xbd58b2c1	-0.052904848
71	0xbd4d5709	-0.05013183
72	0xbd9f6275	-0.07782451
73	0x3d8306ee	0.06397806
74	0x3ca14be0	0.0196895
75	0xbd8a4d0a	-0.06752975
76	0xbba6eae1	-0.0050939177
77	0xbc07fa23	-0.008299383
78	0x3cffae9b	0.031211188
79	0xbd759bca	-0.059963025
80	0xbca62fae	-0.020286407
81	0xbd5344f0	-0.051579416
82	0x3d2b6d26	0.04185214
83	0x3d7ea764	0.062171355
84	0x3d7cd7fd	0.06172942
85	0x3c293824	0.010328326
86	0x3d88b934	0.0667595
87	0xbd2e4c92	-0.042553492
88	0x3d23a1e7	0.039949324
89	0xbd51fc16	-0.0512658
90	0xbd069675	-0.03285833
91	0x3cdc93d7	0.026925964
92	0x3ca669d6	0.020314138
93	0xbd88bd77	-0.066767626
94	0xbc6d6a0d	-0.0144906165
95	0xbb74f4e5	-0.0037377414
96	0xbb8a7ae2	-0.0042260746
97	0x3d8f4ea6	0.06997423
98	0xbd39a670	-0.045324743
99	0xbd99e3e5	-0.075141706
100	0xbceb4694	-0.028720178
101	0x3cd8966d	0.026438916
102	0xbd9f9304	-0.07791713
103	0xbda0ce69	-0.078518696
104	0xbcab685c	-0.020923786
105	0x3d6f9af7	0.058497395
106	0xbd5b9dd6	-0.05361732
107	0x3c287f1c	0.0102842115
108	0xbd8283d1	-0.06372798
109	0xbd7e8cdd	-0.062146056
110	0x3d16fffd	0.036865223
111	0xbb6c9ae2	-0.003610306
112	0x3d9c3bc4	0.07628587
113	0x3d474961	0.048653964
114	0x3a2d4fba	0.00066113065
115	0x3da528fd	0.080644585
116	0x3c39fdfc	0.0113520585
117	0x3d28fa4f	0.041254338
118	0x3c88d42d	0.016702736
119	0xbd7af7f3	-0.06127162
120	0xbd9f6b21	-0.07784105
121	0x3c9a3348	0.01882328
122	0xbd32153b	-0.04347728
123	0x3d33e90d	0.043923426
124	0x3cf4954c	0.029856347
125	0xbd2ab303	-0.041674625
126	0xbd9c33c6	-0.076270625
127	0x3c819b5c	0.015821151
128	0xbc02cf66	-0.007984018
129	0x3d847f57	0.06469601
130	0x3c2e518e	0.010639561
131	0x3d33dee4	0.043913737
132	0xbc18cfd1	-0.009326891
133	0x3d832fef	0.06405627
134	0xbcd9c3bc	-0.026582591
135	0x3d5fdbc9	0.054652963
136	0x3d7bf2f0	0.06151098
137	0x3d7c2e46	0.061567567
138	0xbd890725	-0.06690816
139	0xbd72e701	-0.059302334
140	0xbd86368d	-0.065533735
141	0x3ce2017b	0.027588597
142	0x3d667851	0.056267086
143	0x3cb46b2d	0.022023762
144	0x3ca3e064	0.020004459
145	0xbc8ed945	-0.017437587
146	0x3cebecb5	0.028799394
147	0xbb0c1245	-0.0021373194
148	0x3d8718d7	0.06596535
149	0x3d3c589b	0.04598294
150	0x3ba95296	0.0051673157
151	0xbc99f687	-0.018794311
152	0x3d8c940e	0.06864177
153	0x3ca39e55	0.01997296
154	0xbd84d3da	-0.0648572
155	0xbda3f812	-0.080063
156	0xbc723988	-0.014784224
157	0x3d58894f	0.052865323
158	0xbd3143fb	-0.04327772
159	0x3cf98fc2	0.030464057
160	0x3b863cdf	0.004096612
161	0x3da4a541	0.08039332
162	0xbc7ca466	-0.015420055
163	0x3d4e3530	0.050343692
164	0xbd22f17f	-0.03978109
165	0xbd81649b	-0.06318017
166	0x3b363491	0.0027802328
167	0xbd6597d5	-0.056053
168	0xbda3a8f5	-0.0799121
169	0x3ccd924a	0.02509417
170	0xbd3b206e	-0.045685224
171	0xbd343cc9	-0.04400328
172	0xbd69bbe2	-0.057063945
173	0xbae2855e	-0.0017282178
174	0x3d8e8695	0.06959263
175	0x3d957c49	0.07299096
176	0xbc661eed	-0.014045459
177	0x3af1dbe9	0.0018452379
178	0x3d996253	0.07489457
179	0xbc357df4	-0.011077393
180	0x3da18f0d	0.07888613
181	0x3c187a2c	0.009306472
182	0xbd94a1c5	-0.072574176
183	0x3d27b517	0.040944185
184	0x3d47dc22	0.04879392
185	0xbd45eaab	-0.0483195
186	0xbcb04996	-0.021519464
187	0xbc8e3c05	-0.017362604
188	0x3bfd28da	0.007725817
189	0xbd17ede9	-0.037092123
190	0xbd508ea4	-0.050917283
191	0xbda8c702	-0.08241083
192	0xbcc8bd3b	-0.024504295
193	0xbd087d53	-0.033322643
194	0x3c522020	0.012825042
195	0x3cb78238	0.02240096
196	0xbc8f9676	-0.0175278
197	0x3ca4c95d	0.020115549
198	0xbd275148	-0.040849
199	0x3c91b691	0.01778725
200	0x3d88b7f3	0.066757105
201	0x3d23cfdb	0.03999315
202	0xbd9fa7bb	-0.07795664
203	0x3da75cd8	0.081720054
204	0xbb962b47	-0.004582796
205	0x3d575a57	0.05257639
206	0x3d2302f6	0.039797746
207	0xbd41a431	-0.047275726
208	0x3cc4b4f7	0.024012072
209	0x3d0cbfbe	0.034362547
210	0x3c58edfb	0.013240333
211	0x3d5bf3e7	0.0536994
212	0xbd6871c2	-0.056749113
213	0x3bac7863	0.0052633747
214	0x3d5783fa	0.052616097
215	0x3cbb67cf	0.022876648
216	0xbce4530a	-0.027871627
217	0x3c21e795	0.009881874
218	0x3d49ec41	0.049297575
219	0xbd908d74	-0.0705823
220	0x3cdfa9c5	0.027302632
221	0xbd16d527	-0.03682437
222	0x3d1194e7	0.035542395
223	0x3d744dea	0.059644617
224	0xbda98907	-0.08278089
225	0x3c96c686	0.01840521
226	0x3d9e453c	0.07728049
227	0x3d823acb	0.0635887
228	0xbcf8613b	-0.0303198
229	0xbcaf5ecb	-0.021407505
230	0xbb65dcfd	-0.0035074346
231	0x3d3bdf4d	0.045867253
232	0x3d9eca62	0.07753445
233	0x3d13f411	0.03612143
234	0xbc203ee1	-0.0097806165
235	0x3d532697	0.051550474
236	0xbd60cd19	-0.054883096
237	0x3d3f9f9c	0.046783075
238	0xbcf49c0b	-0.029859563
239	0x3cf94aa1	0.030431094
240	0xbd9e37a3	-0.077254556
241	0xbca2ecd0	-0.019888312
242	0xbd787203	-0.060655605
243	0x3d410d85	0.047132034
244	0xbd98a130	-0.07452619
245	0x3b7b1438	0.0038311612
246	0x3d024e63	0.031813037
247	0x3da6b189	0.08139331
248	0x3ba8fcd9	0.005157095
249	0xbd7beedb	-0.061507087
250	0x3c1382a4	0.009003315
251	0x3b453623	0.0030092082
252	0xbaed751b	-0.0018116565
253	0x3c6b519e	0.014362721
254	0x3d2ebe95	0.042662222
255	0xbcea7d1e	-0.028624114

bias f4 [32]
0	0x3d88f76a	0.066878155
1	0x3d081eeb	0.03323261
2	0x3d2ff1d8	0.04295525
3	0xbd8667d8	-0.065627754
4	0xbd4b272b	-0.0495979
5	0x3ce6a3f0	0.028154343
6	0xbcf82677	-0.030291779
7	0x3d7a9d4b	0.061185163
8	0xbc928c2a	-0.017889101
9	0xbd2ba48e	-0.04190498
10	0xbc3d7640	-0.0115638375
11	0xbc9d2053	-0.019180452
12	0xba3627d1	-0.0006948682
13	0x3d0d860c	0.034551665
14	0x3d5e3096	0.054245554
15	0x3c07cbac	0.008288305
16	0x3da66cec	0.08126244
17	0x3d819d56	0.063288376
18	0x3d47887d	0.04871415
19	0xbc956d80	-0.01824069
20	0x3d29b7d2	0.04143507
21	0xbcf5a669	-0.029986577
22	0x3c88bd40	0.016691804
23	0x3d828a31	0.06374014
24	0x3d94e91b	0.07271024
25	0xbc2d5423	-0.010579142
26	0xbd00734f	-0.031359967
27	0x3daeadf3	0.08529272
28	0x3d97ca29	0.07411606
29	0xbcf5c896	-0.030002873
30	0x3c3b6a78	0.011438958
31	0x3bfa3114	0.007635245

weight f4 [32, 32, 3, 3]
0	0xbb482afb	-0.0030543196
1	0xbc9abd8f	-0.018889217
2	0x3d345c73	0.04403348
3	0xbce8a07f	-0.028396843
4	0xba5628d6	-0.0008169537
5	0x3cee86ad	0.029116953
6	0xbd261e87	-0.040556457
7	0xbd5e1833	-0.054222297
8	0x3c41125c	0.011784162
9	0x3cd89d0d	0.026442075
10	0xbcdea17f	-0.027176617
11	0x3d595138	0.05305597
12	0xbccefc96	-0.025266927
13	0x3b0ed322	0.0021793325
14	0x3ca6c32d	0.020356739
15	0x3d13a60e	0.036047034
16	0xbd644bb1	-0.055736247
17	0x3d2e1e83	0.042509567
18	0x3cac4fc0	0.021034122
19	0x3c94b80d	0.018154169
20	0x3b7584b4	0.003746313
21	0x3c49e0af	0.012321635
22	0x3d10aa6d	0.03531878
23	0xbc9b1f4e	-0.018935826
24	0xbd02abce	-0.031902127
25	0xbd512ec7	-0.05107
26	0xbc5b2167	-0.013374663
27	0xbd1e3875	-0.03862806
28	0xbcdfc49a	-0.027315427
29	0xbca4fbcf	-0.020139603
30	0x3d603d4b	0.054745954
31	0x3d2c2c64	0.04203452
32	0xbd35ac5c	-0.044353828
33	0xbd5309cf	-0.051523026
34	0xbc9dafc4	-0.01924885
35	0xbd642e28	-0.05570808
36	0x3d1ff9f3	0.03905673
37	0xbd30f7b7	-0.04320499
38	0xbd1356da	-0.0359715
39	0xbd11d5a2	-0.035604127
40	0xbbdf0cd5	-0.0068069496
41	0x3c6e8c59	0.014559829
42	0x3d15d390	0.036578715
43	0x3ad39f0e	0.0016145424
44	0xbd239e32	-0.03994579
45	0xbd35c2d6	-0.044375263
46	0x3cf5e59c	0.030016713
47	0x3d482164	0.04885997
48	0x3ca9f089	0.020744579
49	0xbd46cdba	-0.04853604
50	0x3c4daca1	0.012553365
51	0xbd1af85f	-0.03783452
52	0x3c4042f4	0.011734713
53	0x3ca5a3c0	0.020219684
54	0xbbab9f07	-0.0052374634
55	0xbd15bb96	-0.03655585
56	0xbd1eb1fa	-0.03874395
57	0xbd3e7bce	-0.046504788
58	0x3d6362d3	0.055514168
59	0x3cf89dd2	0.030348692
60	0xbd38401c	-0.044983014
61	0x3d223bd8	0.039607853
62	0xbbc7d089	-0.0060978574
63	0x3c12daf6	0.008963337
64	0x3cd1a86e	0.025593009
65	0x3c8e50ae	0.017372455
66	0x3c1f3687	0.00971759
67	0xbb948a99	-0.0045331237
68	0x3d5f0151	0.054444615
69	0x3d2f6ab3	0.042826366
70	0x3d2abaca	0.041682042
71	0xbc754d56	-0.014972052
72	0x3cc8cafb	0.024510851
73	0xbd2280cd	-0.039673615
74	0x3a9dc1c4	0.0012035896
75	0xbb5c589d	-0.0033622154
76	0x3d3e14ab	0.04640643
77	0x3bcb9181	0.006212414
78	0xb9f5afea	-0.00046861108
79	0xbd1a2955	-0.037637074
80	0x3d030947	0.03199127
81	0x3d3ea95d	0.046548236
82	0x3c7f23b0	0.015572473
83	0x3d147a00	0.03624916
84	0xbd079be9	-0.033107672
85	0xbc1e5cb8	-0.009665661
86	0x3cd1efaf	0.025626985
87	0x3b93aa54	0.0045063887
88	0x3d6adefe	0.05734157
89	0xbcb4d748	-0.02207531
90	0xbd5792b2	-0.052630134
91	0xbb2e1ca0	-0.0026567355
92	0x3cd15662	0.025553886
93	0x3c99227f	0.018693207
94	0xbc5ddbfe	-0.01354122
95	0xbd3a0bb1	-0.045421306
96	0x3c9b9c61	0.018995466
97	0xbc93f95c	-0.01806324
98	0xbcac5318	-0.021035716
99	0x3d225229	0.039629135
100	0x3cda0516	0.026613753
101	0xbbcda334	-0.006275559
102	0xbd4ce320	-0.05002129
103	0xbc530517	-0.0128796315
104	0x3d6df6cf	0.058096703
105	0xb9abf832	-0.00032800582
106	0xbc77f823	-0.015134844
107	0xbd02b9f2	-0.031915613
108	0x3aed6e40	0.0018114522
109	0xbbff85d4	-0.007797936
110	0x3d0c50cc	0.03425674
111	0x39ba89dc	0.00035579398
112	0x3ca80fe1	0.020515384
113	0xbd5b6062	-0.053558715
114	0x3c2ae627	0.010430849
115	0xbb2c1676	-0.0026258505
116	0xbd26bc41	-0.040706877
117	0xbd3601de	-0.044435374
118	0xbc31e399	-0.010857486
119	0xbd56cb45	-0.052439947
120	0xbcd47664	-0.02593536
121	0x3d5b4c48	0.053539544
122	0xbcd72921	-0.026264729
123	0x3d0d25c6	0.03445985
124	0x3ca77af3	0.020444369
125	0x3d4b4871	0.049629632
126	0x3c14e248	0.009087153
127	0x3d0bcaa9	0.03412882
128	0xbba36819	-0.0049867746
129	0xbb8e02be	-0.004333823
130	0x3c1b9d48	0.009497948
131	0x3d1d358e	0.03838115
132	0xbd1bcca8	-0.038036972
133	0x3d41cb02	0.047312744
134	0xbd1bc2a4	-0.03802742
135	0x3d303917	0.043023195
136	0xbd13daa4	-0.036097184
137	0x3d6fcaa3	0.05854286
138	0xbd38f063	-0.045151126
139	0xbcdfab71	-0.02730343
140	0xbcc95187	-0.024575008
141	0xbd226aff	-0.03965282
142	0xbc10eca1	-0.008845479
143	0x3c834a69	0.016026692
144	0xbba2aa90	-0.0049641803
145	0xbca10eee	-0.01966044
146	0xbc34ef27	-0.0110433465
147	0x3d2eb72f	0.042655166
148	0x3d4988a0	0.04920256
149	0xbc48a7b6	-0.012247017
150	0x3d1082b9	0.035280917
151	0xbd4ea027	-0.050445702
152	0xbc9c32bf	-0.019067166
153	0xbc8c0fb7	-0.017097337
154	0xbcede741	-0.029040935
155	0xbb852d90	-0.0040642694
156	0xbd568779	-0.05237529
157	0x3d6392fb	0.055560093
158	0xbb104227	-0.0022012086
159	0x3d20b8e4	0.039238825
160	0x3d467913	0.04845531
161	0x3d0ff195	0.0351425
162	0x3cea2339	0.028581249
163	0x3bfa209a	0.007633281
164	0x3d41d7f8	0.047325104
165	0xbc46acd7	-0.012126169
166	0xbd5b59c2	-0.053552397
167	0x3d47cb6c	0.048777983
168	0x3c8a1cc9	0.016859429
169	0x3d46a920	0.048501134
170	0x3d23b793	0.039969992
171	0xbd58f453	-0.05296738
172	0xbd526d6f	-0.051373895
173	0xbd547dc5	-0.051877756
174	0xbd5adf94	-0.053435877
175	0x3d3ec1ea	0.04657165
176	0xbcb61e71	-0.022231312
177	0x3cc69f2c	0.024245821
178	0x3d155088	0.036453754
179	0xbcb707a7	-0.022342516
180	0xb9e1507a	-0.00042975304
181	0x3d55a83b	0.05216239
182	0x3d15c970	0.03656906
183	0xbd440b46	-0.047862314
184	0x3c166fc2	0.009181919
185	0x3c776b2f	0.015101238
186	0x3d1f5254	0.038896874
187	0x3b4e289e	0.0031457315
188	0x3cd95a3d	0.026532287
189	0xbd04fed8	-0.0324696
190	0x3ae5990c	0.0017516925
191	0x3d24905d	0.040176738
192	0x3d32d01e	0.043655507
193	0xbd34cacf	-0.044138726
194	0x3d0a58ed	0.033776212
195	0xbd41626a	-0.047212996
196	0x3d4ec7a5	0.050483365
197	0x3ca626ed	0.020282233
198	0xbb845fe6	-0.0040397523
199	0xbd61275f	-0.054969188
200	0xbd526397	-0.051364508
201	0x3ba34350	0.0049823895
202	0x3d361067	0.044449236
203	0x3d6f7092	0.058456965
204	0x3cafd87a	0.021465529
205	0x3d1e2131	0.038605873
206	0xbc936294	-0.017991342
207	0x3c97587b	0.018474808
208	0x3cb434f5	0.021997908
209	0xbd60fe0c	-0.054929778
210	0xbc9e692f	-0.019337265
211	0x3cc4f8da	0.024044443
212	0xbd56442d	-0.05231111
213	0x3d0f8cda	0.035046436
214	0x3d162e55	0.03666528
215	0x3bf0ac8c	0.007344788
216	0xbbe36d8d	-0.0069405497
217	0x3d623bd5	0.05523284
218	0x3c20a08a	0.0098039005
219	0xbc2e3f60	-0.010635227
220	0xbd296cc3	-0.04136349
221	0x3c410d3b	0.01178294
222	0x3cb5ac3e	0.022176858
223	0x3ceaca34	0.028660871
224	0x3d58322c	0.052782223
225	0x3d550c11	0.05201346
226	0xbc0ddfa8	-0.008659281
227	0x3c5b1628	0.013371982
228	0x3c0c268b	0.008554111
229	0x3d26c08d	0.040710974
230	0x3d2b7b0d	0.041865397
231	0x3c46134c	0.012089562
232	0xbd4760f1	-0.048676435
233	0x3d42e1f0	0.047578752
234	0x3d32d272	0.043657728
235	0x3c5a0cbb	0.013308699
236	0xbc8fd4c6	-0.017557513
237	0x3c992a1c	0.018696837
238	0xbd102a0b	-0.035196345
239	0xbd480699	-0.048834417
240	0xbcce9c9c	-0.025221162
241	0xbd28ce1f	-0.041212197
242	0xbae7cfd0	-0.0017685834
243	0xbd09d1af	-0.033647235
244	0xbd039edb	-0.03213392
245	0xbd4f2e1b	-0.05058108
246	0xbccc0bce	-0.024907973
247	0x3d6a3232	0.057176776
248	0xbcf08c63	-0.029363817
249	0xbd01a181	-0.031648163
250	0x3d1e16b3	0.038595866
251	0x3d577897	0.052605238
252	0x3ca6fb30	0.020383447
253	0xbd26aa49	-0.04068974
254	0x3d6cc790	0.057807505
255	0x3caecccb	0.021337887

bias f4 [32]
0	0x3d5d36b2	0.05400724
1	0x3d4ebb75	0.05047174
2	0x3b82c89a	0.0039911987
3	0xbbacc0e0	-0.005272016
4	0xbcc52830	-0.024067014
5	0x3cf92453	0.030412829
6	0xbc6cb57e	-0.014447568
7	0xbca8da32	-0.020611856
8	0xbd47fef9	-0.048827145
9	0xbcd6f5d6	-0.02624027
10	0x3d188966	0.03724041
11	0x3cf6115a	0.03003757
12	0xbce6c4ce	-0.028170016
13	0xbc059622	-0.00815347
14	0x3d268478	0.040653676
15	0xbcb72f91	-0.022361549
16	0xbd082f93	-0.033248495
17	0x3bac5eab	0.0052603087
18	0x3d6a40aa	0.057190575
19	0xbae1f40d	-0.001723887
20	0x3cba9803	0.022777563
21	0xbd2497de	-0.040183894
22	0x3d5f36ad	0.054495502
23	0x3c346ef0	0.011012778
24	0xbca653a4	-0.020303555
25	0xbd1b1b02	-0.037867554
26	0xbcc92daf	-0.024557916
27	0xbcb0198d	-0.021496559
28	0x3abba4d4	0.001431609
29	0xbd5efe7d	-0.054441918
30	0xbd2715c8	-0.040792257
31	0xbd38aa20	-0.04508412

weight f4 [64, 32, 3, 3]
0	0xbcf51cff	-0.029921053
1	0x3cec2d56	0.028830212
2	0x3c79d024	0.0152473785
3	0x3d4e2f49	0.050338063
4	0x3d65a2cf	0.05606347
5	0xbd54ca0a	-0.051950492
6	0x3d03d8e1	0.032189254
7	0xbccd9c28	-0.025098875
8	0xbd11dab0	-0.035608947
9	0xbb2740c0	-0.0025520772
10	0xbc352d04	-0.011058096
11	0x3d33196b	0.043725412
12	0xbcbefe98	-0.02331476
13	0xbb548400	-0.003242731
14	0xbc11bfe0	-0.008895844
15	0x3d390161	0.04516733
16	0xbc03bb20	-0.00804022
17	0x3c683604	0.014173035
18	0x3d57a655	0.05264886
19	0x3d2c5e13	0.042081904
20	0xbd54c736	-0.051947795
21	0xbc8b9f12	-0.017043624
22	0x3c32eb54	0.010920364
23	0x3b6241d0	0.003452409
24	0x3d2c598f	0.042077597
25	0x3d33de47	0.043913152
26	0x3c85b27e	0.016320463
27	0xbd6b3cd5	-0.05743106
28	0xbc752644	-0.0149627365
29	0xba003a40	-0.00048914924
30	0x3cc4513e	0.02396452
31	0xbd04e7d2	-0.032447644
32	0x3d2e7e99	0.0426012
33	0xbd66a92b	-0.056313675
34	0x39e37d80	0.0004339032
35	0x3d47c177	0.048768487
36	0xbd212568	-0.039342314
37	0xbc271604	-0.01019812
38	0xbc5ae218	-0.013359569
39	0xbceb2906	-0.028706085
40	0xbb7d20f0	-0.0038624369
41	0x3c17d36c	0.0092667155
42	0x3d359123	0.044327866
43	0x3d2eff97	0.04272422
44	0xbc70c550	-0.0146954805
45	0x3d46f3ff	0.048572537
46	0xbc69737c	-0.014248725
47	0xbcb6cb48	-0.022313729
48	0x3c976742	0.018481854
49	0xb997a700	-0.0002892539
50	0xbd6197a5	-0.05507626
51	0xbc4646e4	-0.012101863
52	0x3c99af2a	0.018760283
53	0x3c2c348c	0.010510575
54	0xbc2a95a4	-0.010411654
55	0xbd425f5d	-0.047454227
56	0x3caaad8a	0.020834703
57	0x3d5ca09b	0.053864103
58	0xbd2a9b48	-0.041651994
59	0xbccc0d5e	-0.024908718
60	0xbc716610	-0.014733806
61	0xbd08ab56	-0.033366524
62	0x3d53f317	0.0517455
63	0xbc820d84	-0.015875585
64	0xbbbce280	-0.0057643056
65	0x3d17613f	0.036957975
66	0xbd006881	-0.031349663
67	0xbd4f3349	-0.05058602
68	0x3d56f1f7	0.05247685
69	0x3d01fdbb	0.031736117
70	0x3b95c8c8	0.004571054
71	0xbcfd4dd5	-0.030920902
72	0x3d3c168d	0.045919944
73	0xbcaf2dec	-0.021384202
74	0x3c709854	0.014684755
75	0xbd5ac140	-0.053406954
76	0xbc17b59c	-0.009259608
77	0x3d5a0635	0.053228576
78	0xbcf91bd7	-0.030408783
79	0xbc9f3824	-0.01943595
80	0x3cd02dce	0.025412466
81	0xbd318170	-0.04333633
82	0xbc1cf1ec	-0.009579163
83	0x3d564bef	0.05231851
84	0x3d120b91	0.03565556
85	0x3d07b21f	0.033128854
86	0xbd6e5326	-0.058184765
87	0xbd02851e	-0.03186523
88	0x3d51db97	0.051234808
89	0xbd696d58	-0.056989044
90	0xbc49cb84	-0.012316588
91	0xbd69ef1d	-0.0571128
92	0x3d2b9a23	0.041895043
93	0x3d43a7ad	0.04776733
94	0x3d418b05	0.04725172
95	0xbd302c4e	-0.043011002
96	0xbd3138ce	-0.043267064
97	0x3cdfdb9e	0.027326401
98	0xbb202c10	-0.0024440326
99	0xbbb9cfd8	-0.005670529
100	0xbd32ee42	-0.04368425
101	0xbd008d53	-0.031384777
102	0xbd282456	-0.041050278
103	0xbd429231	-0.0475027
104	0x3d49071d	0.04907905
105	0x3ca8355e	0.02053326
106	0xbd116be4	-0.035503283
107	0xbcbe65e6	-0.023241948
108	0x3c6e68cc	0.014551353
109	0xbd544899	-0.051827047
110	0xbac69c40	-0.0015152767
111	0xbcb66618	-0.022265479
112	0xbd6931ef	-0.056932386
113	0x3d55e1f7	0.05221745
114	0x3c9badf6	0.01900385
115	0xbd056acc	-0.032572553
116	0xbcbbf158	-0.02294223
117	0xbc6354c8	-0.013875194
118	0x3d51f95b	0.051263195
119	0xbc8af7a2	-0.016963784
120	0xbce87e76	-0.028380614
121	0xbc0e29c0	-0.008676946
122	0xbafc3be0	-0.0019243918
123	0xbc706a48	-0.014673777
124	0xbd5d7c22	-0.05407346
125	0xbb5e7510	-0.0033944286
126	0x3ca83de6	0.020537328
127	0x3d621603	0.055196773
128	0xbd416826	-0.047218464
129	0xbccb4046	-0.024810921
130	0xbce0f196	-0.027458947
131	0xbcc20e06	-0.023688328
132	0x3d652691	0.055944983
133	0x3b1237e0	0.0022311136
134	0xbcb79644	-0.02241052
135	0x3d269b87	0.040675666
136	0x3b7c4710	0.0038494505
137	0x3ce35b4a	0.027753491
138	0x3d4fb829	0.05071274
139	0xbd2a8296	-0.041628443
140	0xbd6b0836	-0.057380877
141	0xba9ec080	-0.0012111813
142	0x3d1900c9	0.037354264
143	0x3d0fae1f	0.035078164
144	0x3d00851d	0.031376947
145	0x3d3c9e09	0.04604915
146	0xbca9bbf6	-0.02071951
147	0x3d3f1195	0.046647627
148	0x3d601cab	0.05471484
149	0x3ab48ae0	0.0013774298
150	0x3d5fc6a3	0.054632794
151	0xbd2a6764	-0.041602507
152	0x3c818c8a	0.015814085
153	0xbd1eb790	-0.038749278
154	0x3d634efd	0.05549525
155	0x3d6e8e3f	0.058241125
156	0xbcb3de12	-0.021956477
157	0xbca91c96	-0.020643514
158	0x3a2c2c40	0.0006567873
159	0xbd3f18fe	-0.046654694
160	0x3d400575	0.046880204
161	0xbcfe1b19	-0.03101878
162	0xba9811c0	-0.001160197
163	0xbc91f962	-0.01781911
164	0xbccd4454	-0.025056995
165	0xbd1e5da1	-0.03866351
166	0x3cdfd966	0.027325343
167	0x3bd46b78	0.006482538
168	0x3d5581ab	0.052125614
169	0x3d6df91b	0.058098894
170	0xbc836320	-0.016038477
171	0x3c87d81a	0.016582537
172	0x3cbdfdce	0.023192313
173	0xbc1c347c	-0.009533998
174	0x3d2980c1	0.041382555
175	0xbcaed87e	-0.021343466
176	0xbd2ce2dc	-0.042208537
177	0xbce307a4	-0.027713604
178	0x3c153dfc	0.0091090165
179	0x3c35b93c	0.011091527
180	0xbcb75c0c	-0.022382759
181	0xbd2e7122	-0.04258836
182	0x3d1136b1	0.03545255
183	0xbbca7f58	-0.0061797313
184	0xbc240790	-0.010011569
185	0xbc1b89c0	-0.009493291
186	0x3d2b2a05	0.04178812
187	0x3d38c6fd	0.045111645
188	0xbc86f3ea	-0.01647373
189	0x3d627111	0.05528361
190	0xbc569db4	-0.013099123
191	0xbd0cac16	-0.0343438
192	0x3d3237bb	0.04351018
193	0x3cb7e9a2	0.022450272
194	0x3d59a9c9	0.053140435
195	0x3bf4a278	0.007465657
196	0xbd2cb9a8	-0.042169243
197	0x3b322df0	0.0027188025
198	0x3baec408	0.0053334273
199	0x3d05063f	0.03247666
200	0xbd56e066	-0.052460097
201	0x3a84f7e0	0.0010144673
202	0x3d3d762d	0.04625528
203	0x3cdbd06e	0.026832785
204	0xbd159c92	-0.03652627
205	0x3d1efe91	0.038816992
206	0xbc0bd924	-0.008535657
207	0x3d447311	0.0479613
208	0x3c115bac	0.008871954
209	0xbcc9ee1e	-0.024649676
210	0x3c9967ca	0.018726248
211	0x3c88cf3e	0.016700383
212	0x3bd30358	0.0064396076
213	0x3c8baab6	0.017049175
214	0x3c6269ac	0.013819139
215	0xbd2e92d0	-0.04262048
216	0xbd34e46c	-0.044163153
217	0x3c88427e	0.016633268
218	0x3b9fd9f8	0.004878279
219	0x3d122e05	0.03568842
220	0x3d65b253	0.056078266
221	0xbb0cc900	-0.002148211
222	0xbb3b8470	-0.0028612874
223	0xbd34ca8c	-0.044138476
224	0x3b1f96e0	0.0024351403
225	0xbc211378	-0.009831302
226	0xbc05f800	-0.008176804
227	0x3ba484c8	0.0050207116
228	0xbd124831	-0.03571338
229	0x3d46aa79	0.04850242
230	0xbc8cf4a2	-0.017206494
231	0x3c4610dc	0.0120889805
232	0xbcc35bda	-0.02384751
233	0xbd60e4e2	-0.05490578
234	0xbc8afd46	-0.016966473
235	0x3c9439de	0.018094
236	0xbd637ea0	-0.05554068
237	0x3be02008	0.006839756
238	0xbbefd188	-0.0073186792
239	0xbd136d97	-0.035993185
240	0x3d33c1b9	0.04388592
241	0xbbaf5c40	-0.005351573
242	0x3c713d3c	0.014724072
243	0xbd0c4e27	-0.03425422
244	0x3c0245fc	0.007951256
245	0x3d169645	0.036764402
246	0x3cb36ff6	0.021903973
247	0xbd6e03ff	-0.05810928
248	0xbd175aa4	-0.036951676
249	0x3c47d034	0.012195636
250	0xbd11190a	-0.03542427
251	0x3d14c9a9	0.03632513
252	0x3cf30f7e	0.029670473
253	0xbc138a60	-0.009005159
254	0xbd2c33c1	-0.042041544
255	0xbd1573ce	-0.036487393
